…
    Conv2D(32,3, activation='relu', input_shape=(48,48,1)),
    BatchNormalization(),
    MaxPooling2D(pool_size=(3, 3)),
  
    Flatten(),
    Dense(512, activation='relu'),
    Dense(2,activation='softmax')
])
model.compile(optimizer='adam',
              loss='categorical_crossentropy',
              metrics=['accuracy'])


model.summary()

Model: &quot;sequential_4&quot;
_________________________________________________________________
Layer (type)                 Output Shape              Param #   
=================================================================
conv2d_6 (Conv2D)            (None, 46, 46, 32)        320       
_________________________________________________________________
batch_normalization_4 (Batch (None, 46, 46, 32)        128       
_________________________________________________________________
max_pooling2d_6 (MaxPooling2 (None, 15, 15, 32)        0         
_________________________________________________________________
flatten_4 (Flatten)          (None, 7200)              0         
_________________________________________________________________
dense_8 (Dense)              (None, 512)               3686912   
_________________________________________________________________
dense_9 (Dense)              (None, 2)                 1026      
=================================================================
Total params: 3,688,386
Trainable params: 3,688,322
Non-trainable params: 64
_________________________________________________________________


epochs = 15
steps_per_epoch = train_data_gen.n//train_data_gen.batch_size
validation_steps = val_data_gen.n//val_data_gen.batch_size



history = model.fit(
    x=train_data_gen,
    steps_per_epoch=steps_per_epoch,
…
",72583.0,,1735003.0,,2019-04-03 08:55:09,2019-11-14 08:47:13,What is the difference between Keras and tf.keras in TensorFlow 1.1+?,<tensorflow><keras>,4,0,0.0,,,CC BY-SA 4.0,https://stackoverflow.com/q/44068899
42475381,1,42476116,,2017-02-26 23:08:45,,37,17887,"<p>In <code>keras.applications</code>, there is a VGG16 model pre-trained on imagenet.</p>

<pre><code>from keras.applications import VGG16
model = VGG16(weights='imagenet')
</code></pre>

<p>This model has the following structure.</p>

<pre><code>
Layer (type)                     Output Shape          Param #     Connected to                     
====================================================================================================
input_1 (InputLayer)             (None, 3, 224, 224)   0                                            
____________________________________________________________________________________________________
block1_conv1 (Convolution2D)     (None, 64, 224, 224)  1792        input_1[0][0]                    
____________________________________________________________________________________________________
block1_conv2 (Convolution2D)     (None, 64, 224, 224)  36928       block1_conv1[0][0]               
____________________________________________________________________________________________________
block1_pool (MaxPooling2D)       (None, 64, 112, 112)  0           block1_conv2[0][0]               
____________________________________________________________________________________________________
block2_conv1 (Convolution2D)     (None, 128, 112, 112) 73856       block1_pool[0][0]                
____________________________________________________________________________________________________
block2_conv2 (Convolution2D)     (None, 128, 112, 112) 147584      block2_conv1[0][0]               
____________________________________________________________________________________________________
block2_pool (MaxPooling2D)       (None, 128, 56, 56)   0           block2_conv2[0][0]               
____________________________________________________________________________________________________
block3_conv1 (Convolution2D)     (None, 256, 56, 56)   295168      block2_pool[0][0]                
____________________________________________________________________________________________________
block3_conv2 (Convolution2D)     (None, 256, 56, 56)   590080      block3_conv1[0][0]               
____________________________________________________________________________________________________
block3_conv3 (Convolution2D)     (None, 256, 56, 56)   590080      block3_conv2[0][0]               
____________________________________________________________________________________________________
block3_pool (MaxPooling2D)       (None, 256, 28, 28)   0           block3_conv3[0][0]               
____________________________________________________________________________________________________
block4_conv1 (Convolution2D)     (None, 512, 28, 28)   1180160     block3_pool[0][0]                
____________________________________________________________________________________________________
block4_conv2 (Convolution2D)     (None, 512, 28, 28)   2359808     block4_conv1[0][0]               
____________________________________________________________________________________________________
block4_conv3 (Convolution2D)     (None, 512, 28, 28)   2359808     block4_conv2[0][0]               
____________________________________________________________________________________________________
block4_pool (MaxPooling2D)       (None, 512, 14, 14)   0           block4_conv3[0][0]               
____________________________________________________________________________________________________
block5_conv1 (Convolution2D)     (None, 512, 14, 14)   2359808     block4_pool[0][0]                
____________________________________________________________________________________________________
block5_conv2 (Convolution2D)     (None, 512, 14, 14)   2359808     block5_conv1[0][0]               
____________________________________________________________________________________________________
block5_conv3 (Convolution2D)     (None, 512, 14, 14)   2359808     block5_conv2[0][0]               
____________________________________________________________________________________________________
block5_pool (MaxPooling2D)       (None, 512, 7, 7)     0           block5_conv3[0][0]               
____________________________________________________________________________________________________
flatten (Flatten)                (None, 25088)         0           block5_pool[0][0]                
____________________________________________________________________________________________________
fc1 (Dense)                      (None, 4096)          102764544   flatten[0][0]                    
____________________________________________________________________________________________________
fc2 (Dense)                      (None, 4096)          16781312    fc1[0][0]                        
____________________________________________________________________________________________________
predictions (Dense)              (None, 1000)          4097000     fc2[0][0]                        
====================================================================================================
Total params: 138,357,544
Trainable params: 138,357,544
Non-trainable params: 0
____________________________________________________________________________________________________

</code></pre>

<p>I would like to fine-tune this model with dropout layers between the dense layers (fc1, fc2 and predictions), while keeping all the pre-trained weights of the model intact. I know it's possible to access each layer individually with <code>model.layers</code>, but I haven't found anywhere how to add new layers between the existing layers.</p>
…
<p>My simplified model is the following:</p>

<pre><code>InputSize = 15
MaxLen = 64
HiddenSize = 16

inputs = keras.layers.Input(shape=(MaxLen, InputSize))
x = keras.layers.recurrent.GRU(HiddenSize, return_sequences=True)(inputs)
x = keras.layers.TimeDistributed(keras.layers.Dense(InputSize))(x)
predictions = keras.layers.Activation('softmax')(x)
</code></pre>

<p>The summary of the network is:</p>

<pre><code>_________________________________________________________________
Layer (type)                 Output Shape              Param #   
=================================================================
input_1 (InputLayer)         (None, 64, 15)            0         
_________________________________________________________________
gru_1 (GRU)                  (None, 64, 16)            1536      
_________________________________________________________________
time_distributed_1 (TimeDist (None, 64, 15)            255       
_________________________________________________________________
activation_1 (Activation)    (None, 64, 15)            0         
=================================================================
</code></pre>

<p>This makes sense to me as my understanding of TimeDistributed is that it applies the same layer at all timepoints, and so the Dense layer has 16*15+15=255 parameters (weights+biases).</p>

<p>However, if I switch to a simple Dense layer:</p>

<pre><code>inputs = keras.layers.Input(shape=(MaxLen, InputSize))
x = keras.layers.recurrent.GRU(HiddenSize, return_sequences=True)(inputs)
x = keras.layers.Dense(InputSize)(x)
predictions = keras.layers.Activation('softmax')(x)
</code></pre>

<p>I still only have 255 parameters:</p>

<pre><code>_________________________________________________________________
Layer (type)                 Output Shape              Param #   
=================================================================
input_1 (InputLayer)         (None, 64, 15)            0         
_________________________________________________________________
gru_1 (GRU)                  (None, 64, 16)            1536      
_________________________________________________________________
dense_1 (Dense)              (None, 64, 15)            255       
_________________________________________________________________
activation_1 (Activation)    (None, 64, 15)            0         
=================================================================
</code></pre>

<p>I wonder if this is because Dense() will only use the last dimension in the shape, and effectively treat everything else as a batch-like dimension. But then I'm no longer sure what the difference is between Dense and TimeDistributed(Dense).</p>

<p><strong>Update</strong> Looking at <a href=""https://github.com/fchollet/keras/blob/master/keras/layers/core.py"" rel=""noreferrer"">https://github.com/fchollet/keras/blob/master/keras/layers/core.py</a> it does seem that Dense uses the last dimension only to size itself:</p>
…
hidden = keras.layers.Dropout(0.5)(hidden)
predictions = keras.layers.Dense(80, activation = 'sigmoid')(hidden)
mlp_model = keras.models.Model(input = [x], output = [predictions])
mlp_model.summary()
</code></pre>

<p>And this is the model summary:</p>

<pre><code>____________________________________________________________________________________________________
Layer (type)                     Output Shape          Param #     Connected to                     
====================================================================================================
input_3 (InputLayer)             (None, 4096)          0                                            
____________________________________________________________________________________________________
dense_1 (Dense)                  (None, 512)           2097664     input_3[0][0]                    
____________________________________________________________________________________________________
batchnormalization_1 (BatchNorma (None, 512)           2048        dense_1[0][0]                    
____________________________________________________________________________________________________
dropout_1 (Dropout)              (None, 512)           0           batchnormalization_1[0][0]       
____________________________________________________________________________________________________
dense_2 (Dense)                  (None, 80)            41040       dropout_1[0][0]                  
====================================================================================================
Total params: 2,140,752
Trainable params: 2,139,728
Non-trainable params: 1,024
____________________________________________________________________________________________________
</code></pre>

<p>The size of the input for the BatchNormalization (BN) layer is 512. According to <a href=""https://keras.io/layers/normalization/"" rel=""noreferrer"">Keras documentation</a>, shape of the output for BN layer is same as input which is 512.</p>
…
</code></pre>

<p>Output:</p>

<pre><code>tf.shape(y_true) Tensor(""Shape:0"", shape=(2,), dtype=int32)
type(tf.shape(y_true)) &lt;class 'tensorflow.python.framework.ops.Tensor'&gt;
</code></pre>

<p>Not sure what is <code>shape=(2,)</code> mean, but this is not what I'm expecting, because <code>model.summary()</code> shows that last layer is <code>(None, 26)</code>:</p>

<pre><code>_________________________________________________________________
Layer (type)                 Output Shape              Param #
=================================================================
input_1 (InputLayer)         (None, 80, 120, 3)        0
_________________________________________________________________
conv2d_1 (Conv2D)            (None, 80, 120, 32)       896
_________________________________________________________________
max_pooling2d_1 (MaxPooling2 (None, 40, 60, 32)        0
_________________________________________________________________
activation_1 (Activation)    (None, 40, 60, 32)        0
_________________________________________________________________
conv2d_2 (Conv2D)            (None, 40, 60, 32)        9248
_________________________________________________________________
max_pooling2d_2 (MaxPooling2 (None, 20, 30, 32)        0
_________________________________________________________________
activation_2 (Activation)    (None, 20, 30, 32)        0
_________________________________________________________________
conv2d_3 (Conv2D)            (None, 20, 30, 64)        18496
_________________________________________________________________
max_pooling2d_3 (MaxPooling2 (None, 10, 15, 64)        0
_________________________________________________________________
activation_3 (Activation)    (None, 10, 15, 64)        0
_________________________________________________________________
conv2d_4 (Conv2D)            (None, 10, 15, 64)        36928
_________________________________________________________________
max_pooling2d_4 (MaxPooling2 (None, 5, 7, 64)          0
_________________________________________________________________
activation_4 (Activation)    (None, 5, 7, 64)          0
_________________________________________________________________
flatten_1 (Flatten)          (None, 2240)              0
_________________________________________________________________
head (Dense)                 (None, 26)                58266
=================================================================
</code></pre>
",1179925.0,,5974433.0,,2018-01-23 20:19:41,2018-01-23 20:19:41,Keras: how to get tensor dimensions inside custom loss?,<python><tensorflow><neural-network><deep-learning><keras>,1,0,0.0,,,CC BY-SA 3.0,https://stackoverflow.com/q/45480820
36986815,1,36989864,,2016-05-02 16:07:50,,25,21447,"<p>I built a simple generator that yields a <code>tuple(inputs, targets)</code> with only single items in the <code>inputs</code> and <code>targets</code> lists. Basically, it is crawling the data set, one sample item at a time.</p>
…
('Y_train shape ', (1496000, 1))
('X_val shape ', (374000, 64, 1))
('Y_val shape ', (374000, 1))
</code></pre>

<p>I think the <code>input_shape</code> in the first layer was not setup right. How to set it up?</p>

<hr>

<p><strong>Update</strong>: After using <code>input_shape=(64,1)</code>, I got the following error message, even though the model summary runs through</p>

<pre><code>________________________________________________________________
Layer (type)                 Output Shape              Param #
=================================================================
conv1d_1 (Conv1D)            (None, 64, 60)            1980
_________________________________________________________________
conv1d_2 (Conv1D)            (None, 64, 80)            48080
_________________________________________________________________
dropout_1 (Dropout)          (None, 64, 80)            0
_________________________________________________________________
conv1d_3 (Conv1D)            (None, 64, 100)           40100
_________________________________________________________________
max_pooling1d_1 (MaxPooling1 (None, 64, 100)           0
_________________________________________________________________
dropout_2 (Dropout)          (None, 64, 100)           0
_________________________________________________________________
dense_1 (Dense)              (None, 64, 300)           30300
_________________________________________________________________
dense_2 (Dense)              (None, 64, 1)             301
=================================================================
Total params: 120,761
Trainable params: 120,761
Non-trainable params: 0
_________________________________________________________________
None
Traceback (most recent call last):
  File ""processing_2a_1.py"", line 125, in &lt;module&gt;
    history=model.fit(X_train, Y_train, batch_size=batch_size, validation_data=(X_val,Y_val), epochs=nr_of_epochs,verbose=2)
…
model.add(Embedding(max_words, 1152, input_length=max_len, weights=[embeddings]))
model.add(BatchNormalization())
model.add(Activation('tanh'))
model.add(Dropout(0.5))
model.add(Bidirectional(LSTM(32)))
model.add(BatchNormalization())
model.add(Activation('tanh'))
model.add(Dropout(0.5))
model.add(Dense(1, activation='sigmoid'))
model.summary()
</code></pre>
<p>And the model summary is</p>
<pre><code>Model: &quot;sequential_1&quot;
_________________________________________________________________
Layer (type)                 Output Shape              Param #   
=================================================================
embedding_1 (Embedding)      (None, 1152, 1152)        278396928 
_________________________________________________________________
batch_normalization_1 (Batch (None, 1152, 1152)        4608      
_________________________________________________________________
activation_1 (Activation)    (None, 1152, 1152)        0         
_________________________________________________________________
dropout_1 (Dropout)          (None, 1152, 1152)        0         
_________________________________________________________________
bidirectional_1 (Bidirection (None, 64)                303360    
_________________________________________________________________
batch_normalization_2 (Batch (None, 64)                256       
_________________________________________________________________
activation_2 (Activation)    (None, 64)                0         
_________________________________________________________________
dropout_2 (Dropout)          (None, 64)                0         
_________________________________________________________________
dense_1 (Dense)              (None, 1)                 65        
=================================================================
Total params: 278,705,217
Trainable params: 278,702,785
Non-trainable params: 2,432
</code></pre>
",10097229.0,,10375049.0,,2020-10-06 16:44:40,2021-06-24 18:02:36,How to add attention layer to a Bi-LSTM,<python-3.x><tensorflow><machine-learning><keras><nlp>,2,0,0.0,,,CC BY-SA 4.0,https://stackoverflow.com/q/62948332
491359
…
    model.add(Dropout(0.2))
    model.add(LeakyReLU())
    model.add(Flatten())
    model.add(Dense(1, activation='sigmoid'))

    model.compile(loss='binary_crossentropy', optimizer=opt,
                  metrics=['accuracy', keras_metrics.precision(), 
                           keras_metrics.recall(), f1])
</code></pre>
<p><strong>Model Summary:</strong></p>
<pre><code>_________________________________________________________________
Layer (type)                 Output Shape              Param #   
=================================================================
lstm_1 (LSTM)                (None, 100, 32)           6272      
_________________________________________________________________
leaky_re_lu_1 (LeakyReLU)    (None, 100, 32)           0         
_________________________________________________________________
dropout_1 (Dropout)          (None, 100, 32)           0         
_________________________________________________________________
lstm_2 (LSTM)                (None, 100, 16)           3136      
_________________________________________________________________
dropout_2 (Dropout)          (None, 100, 16)           0         
_________________________________________________________________
leaky_re_lu_2 (LeakyReLU)    (None, 100, 16)           0         
_________________________________________________________________
flatten_1 (Flatten)          (None, 1600)              0         
_________________________________________________________________
dense_1 (Dense)              (None, 1)                 1601      
=================================================================
Total params: 11,009
Trainable params: 11,009
Non-trainable params: 0
_________________________________________________________________
</code></pre>
",1115237.0,,11829398.0,,2021-11-10 10:56:44,2021-11-10 10:56:44,Stateful LSTM and stream predictions,<python><tensorflow><keras><lstm><stateful>,4,15,0.0,,,CC BY-SA 4.0,https://stackoverflow.com/q/53190253
…
