…
Found 209 images belonging to 3 classes.
WARNING:tensorflow:From C:/Users/astro/pythonprojects/covid_chest_xray_image_classification/main.py:86: Model.fit_generator (from tensorflow.python.keras.engine.training) is deprecated and will be removed in a future version.
Instructions for updating:
Please use Model.fit, which supports generators.
Found 57 images belonging to 3 classes.
Model: &quot;sequential&quot;
_________________________________________________________________
Layer (type)                 Output Shape              Param #   
=================================================================
conv2d (Conv2D)              (None, 538, 581, 32)      896       
_________________________________________________________________
max_pooling2d (MaxPooling2D) (None, 269, 290, 32)      0         
_________________________________________________________________
conv2d_1 (Conv2D)            (None, 267, 288, 64)      18496     
_________________________________________________________________
max_pooling2d_1 (MaxPooling2 (None, 133, 144, 64)      0         
_________________________________________________________________
conv2d_2 (Conv2D)            (None, 131, 142, 64)      36928     
_________________________________________________________________
max_pooling2d_2 (MaxPooling2 (None, 65, 71, 64)        0         
_________________________________________________________________
conv2d_3 (Conv2D)            (None, 63, 69, 128)       73856     
_________________________________________________________________
max_pooling2d_3 (MaxPooling2 (None, 31, 34, 128)       0         
_________________________________________________________________
flatten (Flatten)            (None, 134912)            0         
_________________________________________________________________
dense (Dense)                (None, 128)               17268864  
_________________________________________________________________
dropout (Dropout)            (None, 128)               0         
_________________________________________________________________
dense_1 (Dense)              (None, 1)                 129       
=================================================================
Total params: 17,399,169
Trainable params: 17,399,169
Non-trainable params: 0
_________________________________________________________________
Epoch 1/30
2020-07-17 01:50:09.168943: I tensorflow/stream_executor/platform/default/dso_loader.cc:44] Successfully opened dynamic library cublas64_10.dll
2020-07-17 01:50:09.706730: I tensorflow/stream_executor/platform/default/dso_loader.cc:44] Successfully opened dynamic library cudnn64_7.dll
…
    history = model.fit(train_X, train_y, validation_split=0.2, epochs=10, batch_size=100)



momentum_rate = 0.09
learning_rate = 0.01
neurons = 40
print(convolutional_neural_network(train_X, train_y))
</code></pre>
<p>Update 2: Still facing a similar issue with smaller dataset</p>
<pre><code>_________________________________________________________________
Model: &quot;sequential&quot;
_________________________________________________________________
Layer (type)                 Output Shape              Param #
=================================================================
conv1d (Conv1D)              (None, 564, 64)           256
_________________________________________________________________
flatten (Flatten)            (None, 36096)             0
_________________________________________________________________
dense (Dense)                (None, 50)                1804850
_________________________________________________________________
dense_1 (Dense)              (None, 50)                2550
_________________________________________________________________
dense_2 (Dense)              (None, 50)                2550
_________________________________________________________________
dense_3 (Dense)              (None, 50)                2550
_________________________________________________________________
dense_4 (Dense)              (None, 10)                510
=================================================================
Total params: 1,813,266
Trainable params: 1,813,266
Non-trainable params: 0
</code></pre>
",5653423.0,,4685471.0,,2020-12-07 22:34:55,2020-12-11 02:41:07,error when using Mirrored strategy in Tensorflow,<python><tensorflow><machine-learning>,1,13,,,,CC BY-SA 4.0
70268140,1,70268141.0,,2021-12-07 23:20:55,,7,21908,"<p>I just updated my graphics cards drives with</p>
…
2015-12-05 13:16:00,377.5
2015-12-05 13:17:00,377.49
2015-12-05 13:18:00,377.5
2015-12-05 13:19:00,377.5
2015-12-05 13:20:00,377.8
2015-12-05 13:21:00,377.84
2015-12-05 13:22:00,378.29
2015-12-05 13:23:00,378.3
2015-12-05 13:24:00,378.3
2015-12-05 13:25:00,378.33
2015-12-05 13:26:00,378.33
2015-12-05 13:28:00,378.31
2015-12-05 13:29:00,378.68
</code></pre>
<p>The first is the date and the second value after the comma is the price of BTC at that time. Now after &quot;one-hot encoding&quot;, I added a print statement to print the value of those X values, and that gave the following value:</p>
<pre><code>  (0, 0)    1.0
  (1, 1)    1.0
  (2, 2)    1.0
  (3, 3)    1.0
  (4, 4)    1.0
  (5, 5)    1.0
  (6, 6)    1.0
  (7, 7)    1.0
  (8, 8)    1.0
  (9, 9)    1.0
  (10, 10)  1.0
  (11, 11)  1.0
  (12, 12)  1.0
  (13, 13)  1.0
  (14, 14)  1.0
  (15, 15)  1.0
  (16, 16)  1.0
  (17, 17)  1.0
  (18, 18)  1.0
  (19, 19)  1.0
  (20, 20)  1.0
  (21, 21)  1.0
  (22, 22)  1.0
  (23, 23)  1.0
  (24, 24)  1.0
  : :
  (2526096, 2526096)    1.0
  (2526097, 2526097)    1.0
  (2526098, 2526098)    1.0
  (2526099, 2526099)    1.0
  (2526100, 2526100)    1.0
  (2526101, 2526101)    1.0
  (2526102, 2526102)    1.0
  (2526103, 2526103)    1.0
  (2526104, 2526104)    1.0
  (2526105, 2526105)    1.0
  (2526106, 2526106)    1.0
  (2526107, 2526107)    1.0
  (2526108, 2526108)    1.0
  (2526109, 2526109)    1.0
  (2526110, 2526110)    1.0
  (2526111, 2526111)    1.0
  (2526112, 2526112)    1.0
  (2526113, 2526113)    1.0
  (2526114, 2526114)    1.0
  (2526115, 2526115)    1.0
  (2526116, 2526116)    1.0
  (2526117, 2526117)    1.0
  (2526118, 2526118)    1.0
  (2526119, 2526119)    1.0
  (2526120, 2526120)    1.0
</code></pre>
<p>Following fitting for normalization, I receive the following error:</p>
<pre><code>---------------------------------------------------------------------------
AttributeError                            Traceback (most recent call last)
/usr/local/lib/python3.7/dist-packages/sklearn/utils/__init__.py in _get_column_indices(X, key)
    408         try:
--&gt; 409             all_columns = X.columns
…
model.add(LSTM(256, return_sequences=True))  # the output will be a sequence of the same length
model.add(Dropout(0.2))
model.add(LSTM(512))
model.add(Dropout(0.2))
model.add(Dense(self.total_words, activation='softmax'))
adam = Adam(learning_rate=0.001)
model.compile(loss='categorical_crossentropy', optimizer=adam, metrics=['acc'])
</code></pre>
<p>Model summary:</p>
<pre><code>Model: &quot;sequential&quot;
_________________________________________________________________
 Layer (type)                Output Shape              Param #   
=================================================================
 cpu_embedding (CPUEmbedding  (None, 163, 256)         4930560   
 )                                                               
                                                                 
 lstm (LSTM)                 (None, 163, 256)          525312    
                                                                 
 dropout (Dropout)           (None, 163, 256)          0         
                                                                 
 lstm_1 (LSTM)               (None, 512)               1574912   
                                                                 
 dropout_1 (Dropout)         (None, 512)               0         
                                                                 
 dense (Dense)               (None, 19260)             9880380   
                                                                 
=================================================================
Total params: 16,911,164
Trainable params: 16,911,164
Non-trainable params: 0
</code></pre>
<p>A model that you can run, but first you will need to download some big book</p>
<pre class=""lang-py prettyprint-override""><code>from keras.preprocessing.sequence import pad_sequences
…
